model.pth (torch, 44606 bytes, 14 tensors)

fc1.weight f4 [8, 980]
000000 38 2a a2 bf 2c b3 87 3e 22 14 82 3e a8 3b 96 bf
       -1.2669134 0.26503885 0.25405985 -1.1736956
000010 d1 5c 05 be 03 9c 45 40 f7 7f 72 3e 7d 28 6c 3e
       -0.13023688 3.0876472 0.23681627 0.2306232
000020 06 f3 9c bf a9 27 bf 3e 28 02 4b 3f 0e 3a 38 bf
       -1.2261665 0.37334946 0.79300165 -0.71963584
000030 96 16 04 3e 8b 40 cc be 77 d0 6d 3e c7 df 97 bf
       0.12899241 -0.39892992 0.23224054 -1.1865166
000040 c1 eb 2f 3f b9 14 57 3f 67 65 cc be b7 d2 ed 3d
       0.68719107 0.84015995 -0.39921114 0.11612456
000050 1e 2c 65 bf c1 0c a8 bf 25 d9 2c bb 0e 57 87 3e
       -0.8952044 -1.3128892 -0.0026374545 0.26433605
000060 7c af b8 3f 28 0c 4b c0 34 5d 5f bf b0 02 7e be
       1.4428554 -3.172617 -0.8725159 -0.24805713
000070 9f fa 9a bb 63 3c a9 be 0c a3 e7 bf 9d 50 fe be
       -0.0047295834 -0.33053884 -1.8096633 -0.49670878
000080 53 a5 25 3f ed 69 9c bf 92 1d 6a bf 6a dd 93 3f
       0.6470539 -1.2219826 -0.9145137 1.1551945
000090 b6 03 60 3f bc 72 c6 bf b0 40 71 3f 96 9a 79 3f
       0.8750566 -1.5503764 0.9423933 0.97501504
0000a0 ae be 96 3f b4 c4 e9 3f 2c 49 08 3e 12 92 0a 3f
       1.1776941 1.8263154 0.13309163 0.54129136
0000b0 6d 5b 17 bf 13 23 c7 bf e6 04 cb be 86 2b 0c bf
       -0.5912388 -1.5557579 -0.39652175 -0.5475391
0000c0 8c ca 88 be 2f eb a1 be 99 28 4b 3f 80 15 90 bc
       -0.2671703 -0.31624743 0.7935882 -0.017588377
0000d0 cc e2 ee bf 3f db f1 be 32 5b ef 3e d2 83 aa bd
       -1.8662963 -0.47237584 0.46749264 -0.08325924
0000e0 12 aa 55 3e cf d3 a9 bf c8 bf 07 40 01 e8 19 c0
       0.20865658 -1.3267764 2.1210804 -2.4047854
0000f0 27 6d a5 be 97 73 f5 3e fc 0f 9a 3f 00 a8 a1 3e
       -0.3230984 0.4793975 1.2036128 0.31573486
000100 08 ba 78 3e ce d5 6d 3f 1a fd 24 40 dc ed ba 3f
       0.24289715 0.92904365 2.577948 1.4603839
000110 c0 68 0c 3f ae 0c 0f 3f 21 8e bd bf cd f0 0f 3e
       0.54847336 0.5587872 -1.4808999 0.14056702
000120 db 30 fc 3d 92 13 7a 3e c4 22 02 3e 56 0a 22 3d
       0.12314006 0.24421528 0.12708575 0.03956064
000130 98 81 89 3f 40 af 31 c0 b4 56 b9 be fc 71 5e bf
       1.0742674 -2.7763214 -0.36198962 -0.86892676
000140 2d d0 07 c0 9e 33 29 bf 26 bf 8b 3d 27 3a 8e 3f
       -2.122081 -0.66094387 0.06823568 1.1111497
000150 1c 88 f0 3f 33 85 35 3e ca 95 d8 bf 4a 87 12 3e
       1.8791537 0.17726593 -1.6920712 0.14309421
000160 53 fc cd 3d 7f 15 bc 3e 0a 96 13 40 d8 a1 0a bf
       0.10057893 0.3673515 2.3060327 -0.54153204
000170 f9 1a 2a c0 e3 11 d8 3e be 87 01 40 c6 b8 ea 3f
       -2.6578963 0.42201146 2.02391 1.8337638
000180 37 b9 40 40 19 b1 a5 3f 7a 39 85 be 1d 19 a0 3e
       3.0113046 1.2944671 -0.26020414 0.3126916
000190 8b ff 9a 3e 07 1c e1 bf 8e eb 91 3e 28 cd 07 bd
       0.3027309 -1.7586678 0.28500026 -0.033154637
0001a0 79 98 ac 3e 85 65 51 3e 69 6a 06 3f 32 7b a1 3e
       0.33710077 0.20448883 0.5250612 0.31539303
0001b0 5b 64 33 bf f9 49 96 3e c6 58 49 bf 78 e9 9f 3f
       -0.70075005 0.29353312 -0.7865108 1.2493124
0001c0 81 2f 85 3f 9c 24 e1 bd b0 19 5b bf 80 e7 1f 3e
       1.0405122 -0.10993311 -0.8558607 0.15615654
0001d0 0e d2 38 3e d9 fb dc 3e 9f 17 c1 3f 5d 97 1e be
       0.1804888 0.43160895 1.5085334 -0.15487428
0001e0 ca 84 22 bf 43 00 5e 3f 90 ad cf be 35 2f d0 3e
       -0.6348387 0.8671915 -0.40562105 0.40661016
0001f0 1d 93 33 3f d7 54 0f 40 50 2a da 3f 28 91 ec 3f
       0.7014635 2.2395532 1.7044163 1.8481798
000200 52 2b d5 3f e5 93 2a bf a4 3a 29 3f 52 b6 8e 3e
       1.6653845 -0.6663192 0.66105103 0.27873474
000210 09 88 ad 3e 22 fe 2a bf 14 f5 cb bf ba 77 01 bd
       0.3389285 -0.66794026 -1.5934167 -0.03160832
000220 90 aa 8b bf b0 54 0c 3e 30 e5 a8 bd dd ad e6 be
       -1.0911427 0.1370418 -0.08246839 -0.45054522
000230 96 da 07 be e8 ed 8d bf 93 77 47 3f cb 9f 53 3e
       -0.13266978 -1.1088228 0.7791683 0.20666425
000240 5f ab d5 be e9 f3 89 be ca 95 b6 bf 5c 91 9b bf
       -0.41732308 -0.269439 -1.4264462 -1.2153735
000250 2c 9f 88 3f c1 f3 4a 3e 50 5c 34 3f 08 eb ba be
       1.0673575 0.19819547 0.7045336 -0.3650744
000260 3c 04 6a bf c6 9c cb bf 87 ca a5 3f 27 7f 0b 40
       -0.9141271 -1.5907218 1.2952431 2.1796358
000270 8e 50 ca 3e 48 e1 04 bf 4b 2c d6 3f ee 66 f6 bf
       0.39514583 -0.5190625 1.6732267 -1.9250162
000280 d4 76 50 be 12 44 73 3f b1 fe a4 3f c7 e1 0f 3f
       -0.2035783 0.9502574 1.2890226 0.56203884
000290 21 23 ba be 6b 75 ad bd 63 4d 9d 3e d1 0b 5c 3f
       -0.36354926 -0.08469661 0.30723104 0.8595553
0002a0 7b 73 a4 3d 89 ee 3f bd e6 0a a8 3f c1 47 61 bf
       0.08029839 -0.046858344 1.3128326 -0.8800011
0002b0 30 9a 05 3e 79 3e 26 3f 0d 8f a1 bf 36 02 5f 3f
       0.13047099 0.64939076 -1.2621781 0.8711275
0002c0 a3 80 95 40 cc e7 0a 40 d6 09 d2 3e 6f 5c ac bf
       4.6719527 2.1703978 0.4102313 -1.3465708
0002d0 d0 3f 12 3f 4a 8e 8a bf eb 3c 05 be da 34 c9 3f
       0.5712862 -1.0824673 -0.1301152 1.5719254
0002e0 84 22 81 bf 5f 33 00 c0 13 c1 42 bd 37 d6 07 3f
       -1.0088658 -2.0031354 -0.04754741 0.5306124
0002f0 0a 3d b1 3f 65 56 9f 3f d4 6f 91 be c0 ec 28 3f
       1.3846753 1.244824 -0.2840563 0.6598625
000300 a4 e1 1d 3f db 3f b5 3f cb 23 93 3f 07 a8 c4 3e
       0.61672425 1.4160112 1.1495298 0.38409445
000310 4c 4a 8d 3f aa b3 e0 3c 7c fc 6d 3e 1d ef 82 3f
       1.1038299 0.02742942 0.23240846 1.0229222
000320 8f 4d bc 3f ee e1 35 bf 00 4f cf bf c1 d1 b7 be
       1.4711169 -0.71047866 -1.6195984 -0.35902217
000330 bf a7 86 3f 6c 31 02 bf 16 07 f0 3f 58 90 58 be
       1.0519942 -0.5085666 1.8752162 -0.21148813
000340 5f c1 fb bf 16 f3 59 bf ea 8b 9b bf 0c 63 cb 3f
       -1.9668387 -0.85136545 -1.2152073 1.5889602
000350 2b f1 2c 3f c6 99 06 3f 20 9f 48 3f 89 f6 36 3f
       0.67555493 0.5257839 0.78367805 0.7146993
000360 e8 9a 53 bf c7 0f fe 3f 72 af a8 bf 60 85 b8 be
       -0.82658243 1.9848565 -1.3178542 -0.36039257
000370 ff 68 67 3e 7f 29 24 bd c4 8e 89 3d 3f de 26 3f
       0.22598647 -0.040078636 0.067166835 0.6518287
000380 7b 0f cc bf af 36 16 be bc a8 b9 3f 58 59 e7 3e
       -1.5942224 -0.14669298 1.4504619 0.4518535
000390 90 72 1c c0 5c 98 03 c0 e3 3a 85 bf 4c 4d d2 bf
       -2.4444923 -2.0561743 -1.0408596 -1.6429839
0003a0 63 2e ae 3f 46 a2 fe 3e 5f 3e 2c 40 b7 59 6e be
       1.3607906 0.4973318 2.6913068 -0.23276411
0003b0 9a a7 86 bf 01 a1 d9 3d a8 d1 e2 3e 49 9b 4b bd
       -1.0519898 0.10626412 0.4430058 -0.04970864
0003c0 44 0f 1c be 4e 84 09 bf 77 48 3d bf e4 1e 98 3e
       -0.15240198 -0.53717506 -0.739387 0.29711068
0003d0 81 bb 1b bf 92 ef 84 3e a3 9d 5f 3f 14 95 fe bd
       -0.60832983 0.25964028 0.8734991 -0.12430778
0003e0 b2 30 d3 bf 02 e9 1a 40 a7 59 49 bf d4 9a 87 3f
       -1.6499236 2.4204717 -0.78652424 1.0594125
0003f0 4e e0 02 40 9e be 35 bd 2c a8 ec 3e 84 ff 0b 39
       2.0449405 -0.04437124 0.46222055 0.0001335126

fc1.bias f4 [8]
000000 5f c5 92 3f 51 ad 8c 3f a7 fe 71 3f 6d be 86 3f
       1.1466483 1.0990392 0.94529194 1.0526863
000010 38 10 ea 3f 92 80 45 3f ea 96 14 3f 33 b7 28 3f
       1.82862 0.7714931 0.58042777 0.6590454

bn1.weight f4 [8]
000000 00 00 80 3f 00 00 80 3f 00 00 80 3f 00 00 80 3f
       1.0 1.0 1.0 1.0
000010 00 00 80 3f 00 00 80 3f 00 00 80 3f 00 00 80 3f
       1.0 1.0 1.0 1.0

bn1.bias f4 [8]
000000 00 00 00 00 00 00 00 00 00 00 00 00 00 00 00 00
       0.0 0.0 0.0 0.0
000010 00 00 00 00 00 00 00 00 00 00 00 00 00 00 00 00
       0.0 0.0 0.0 0.0

bn1.running_mean f4 [8]
000000 00 00 00 00 00 00 00 00 00 00 00 00 00 00 00 00
       0.0 0.0 0.0 0.0
000010 00 00 00 00 00 00 00 00 00 00 00 00 00 00 00 00
       0.0 0.0 0.0 0.0

bn1.running_var f4 [8]
000000 00 00 80 3f 00 00 80 3f 00 00 80 3f 00 00 80 3f
       1.0 1.0 1.0 1.0
000010 00 00 80 3f 00 00 80 3f 00 00 80 3f 00 00 80 3f
       1.0 1.0 1.0 1.0

fc2.weight f4 [8, 8]
000000 76 c3 13 bc 6e 43 16 40 bd 30 2e c0 ee 66 22 40
       -0.0090187695 2.3478656 -2.7217247 2.5375323
000010 39 ab 6a 3f 6b 24 08 c0 d3 ec 33 40 8e 83 1d 40
       0.91667515 -2.1272228 2.8113296 2.4611545
000020 72 37 88 40 64 e7 60 bf b7 f5 93 3f a4 34 c1 bc
       4.256768 -0.87853074 1.1559361 -0.023584671
000030 a4 2e ad bf e1 5c 0c 40 0f f3 4a 40 ac 63 0c be
       -1.3529859 2.1931689 3.1710851 -0.13709897
000040 28 5b 3d c0 3b 3a 6a bf cc d8 80 3e f5 31 42 3f
       -2.9586887 -0.914951 0.25165403 0.7585748
000050 8f 04 37 40 22 17 31 40 c6 2e 19 40 4b 6b a2 be
       2.8596532 2.767037 2.3934798 -0.31722483
000060 10 20 c9 bf 13 3f 35 40 95 85 36 40 cc 71 e2 3f
       -1.571291 2.8319747 2.8519032 1.7690978
000070 e9 00 89 bf 0c 4a 01 3f 82 5d 97 bf f8 52 2b c0
       -1.0703403 0.5050361 -1.1825411 -2.676939
000080 cb 27 22 bf 33 bc cc 3f c0 e5 e3 bc af dd d3 bf
       -0.6334197 1.5994934 -0.027819514 -1.6552027
000090 12 c8 bd be 4b 62 41 40 86 aa 07 c0 fb 39 81 40
       -0.37066704 3.0216243 -2.119783 4.0383277
0000a0 34 af 25 bf 16 5b a1 bd ce 41 2e 40 44 96 1c c0
       -0.64720464 -0.078787014 2.7227664 -2.4466715
0000b0 05 28 a4 3f 77 27 f1 bf cd c8 c3 3f 00 30 2e 40
       1.2824713 -1.8840169 1.5295655 2.7216797
0000c0 9c 83 fc 3c 37 8e a3 bf da 1f 0b 3f b4 89 7e 40
       0.030824475 -1.2777776 0.54345477 3.9771547
0000d0 91 2b c6 3f 65 21 e2 3e 1f 72 1a c0 fb cb e5 3f
       1.5482045 0.44166103 -2.4132154 1.7952875
0000e0 b1 f7 fe 3f 0c 05 b2 3f f7 fb 4f bd 55 69 10 c0
       1.991934 1.390779 -0.0507774 -2.256429
0000f0 66 80 67 40 f6 24 11 bf 42 6a 0a c0 c4 49 b4 bf
       3.6172118 -0.5669702 -2.1627355 -1.4085011

fc2.bias f4 [8]
000000 b3 3b af bd 89 8e 1e bf ff 15 7e 3e 8f c6 7a 3f
       -0.085563086 -0.6193624 0.24813078 0.97959226
000010 30 f9 26 be 46 ff f3 bd cf 24 b0 3f 9f 0b fe 3f
       -0.16305995 -0.11913924 1.3761233 1.9847296

bn2.weight f4 [8]
000000 00 00 80 3f 00 00 80 3f 00 00 80 3f 00 00 80 3f
       1.0 1.0 1.0 1.0
000010 00 00 80 3f 00 00 80 3f 00 00 80 3f 00 00 80 3f
       1.0 1.0 1.0 1.0

bn2.bias f4 [8]
000000 00 00 00 00 00 00 00 00 00 00 00 00 00 00 00 00
       0.0 0.0 0.0 0.0
000010 00 00 00 00 00 00 00 00 00 00 00 00 00 00 00 00
       0.0 0.0 0.0 0.0

bn2.running_mean f4 [8]
000000 00 00 00 00 00 00 00 00 00 00 00 00 00 00 00 00
       0.0 0.0 0.0 0.0
000010 00 00 00 00 00 00 00 00 00 00 00 00 00 00 00 00
       0.0 0.0 0.0 0.0

bn2.running_var f4 [8]
000000 00 00 80 3f 00 00 80 3f 00 00 80 3f 00 00 80 3f
       1.0 1.0 1.0 1.0
000010 00 00 80 3f 00 00 80 3f 00 00 80 3f 00 00 80 3f
       1.0 1.0 1.0 1.0

fc3.weight f4 [219, 8]
000000 66 86 c6 be cf d0 e4 3e 6f c1 bd be 48 37 a7 be
       -0.38774413 0.44690558 -0.3706164 -0.32659364
000010 77 30 6f 3e 6e f9 04 bf 39 46 1f 3e 76 e1 b3 bf
       0.23358332 -0.519431 0.15554132 -1.405318
000020 1d 7a 0b bf 2f e0 d0 3d f7 06 4c be f4 00 4f c0
       -0.54483205 0.101990096 -0.19924532 -3.2344332
000030 fe 95 fc 3e 14 49 09 3f 02 5a 4b be 97 42 29 bf
       0.49333185 0.53627133 -0.19858554 -0.66117233
000040 98 7a 2d bf e6 da 21 3f a4 d3 f5 bc d1 65 26 bf
       -0.6776519 0.6322464 -0.030008145 -0.6499911
000050 a0 95 0d 3f a2 03 13 be da 04 65 bf 25 16 09 c0
       0.55306435 -0.14356855 -0.8946053 -2.1419766
000060 0c 34 1b bf 03 a0 ab bc 34 54 a8 3e 0e ee 34 bf
       -0.6062629 -0.020950323 0.32876742 -0.7067574
000070 97 ef 3d 3f 1e 35 e2 be bd ce 08 be bf c4 2b bf
       0.7419371 -0.4418115 -0.13360114 -0.67097086
000080 8f 8a b2 3e 13 61 21 bf 54 06 6e bf 3e ba 0a 3f
       0.34871337 -0.6303875 -0.92978406 0.54190433
000090 93 9a 03 bf 34 14 b6 3e 08 93 00 c0 d8 ef 61 3e
       -0.51407737 0.3556229 -2.008974 0.2206415
0000a0 48 48 05 3f ba 14 03 bf bb d6 08 c0 c8 8e 2f 3f
       0.5206342 -0.512035 -2.138106 0.6857724
0000b0 4d de 0d bf b3 95 55 3d 3b e9 a1 bf 3b b8 82 bc
       -0.5541733 0.052144717 -1.2649301 -0.015956989
0000c0 6f a8 5c bf 30 57 1c be 47 31 c4 bd 35 c7 9d c0
       -0.8619451 -0.15267634 -0.095797114 -4.9305673
0000d0 6a 36 7c be 5a b7 f8 be 0a 49 38 3f 8b ed 5c 3f
       -0.24630132 -0.48577386 0.7198645 0.8629996
0000e0 8e a2 63 3e 28 cc 39 bf fc 02 85 3f ea c4 9c bf
       0.22229978 -0.7257714 1.0391536 -1.2247593
0000f0 2f b6 62 bf b3 4a 9f bf ae a7 08 3f 8c 36 b4 be
       -0.8855924 -1.2444671 0.5338086 -0.35197866
000100 a8 71 a2 bf 88 39 27 bf 81 3d 4e 3f 15 95 a5 bf
       -1.2690935 -0.6532216 0.805626 -1.2936121
000110 2d da 88 be ec 7a 0c bf e3 c2 ec 3e 97 60 15 3f
       -0.26728955 -0.54875064 0.46242437 0.5835051
000120 4d 92 d0 bf 56 d6 ff be 9e c8 4f bf 7c f7 48 3f
       -1.6294647 -0.49968213 -0.8116549 0.7850263
000130 d5 e2 86 c0 f3 f2 0b 3f 31 43 88 be 87 df cc 3e
       -4.2151895 0.54667586 -0.26613763 0.40014288
000140 a4 0c c8 be 21 15 24 3e df 84 4c bf d5 96 41 be
       -0.39072144 0.16023685 -0.79890245 -0.18905194
000150 32 d2 fa bf b4 0d c0 bf 03 33 13 3f ea 2d 4b 3f
       -1.9595397 -1.5004182 0.5749971 0.79366934
000160 30 8b 1e 3e c8 d4 99 3e a1 db 57 bf c1 96 0a bf
       0.15482783 0.30045152 -0.843195 -0.5413628
000170 7e e7 72 bf 22 05 cd be b4 8e 52 3e 6c 40 65 3e
       -0.9488448 -0.4004298 0.2056225 0.22387856
000180 17 03 66 bf 1e 03 2e bf c1 87 a5 bf 3d 24 c2 3f
       -0.89848465 -0.67973506 -1.2932054 1.5167309
000190 78 a5 a8 bf 62 df bd bf a1 b9 fe 3d 80 18 79 3d
       -1.3175497 -1.4833796 0.1243775 0.06081438
0001a0 1c 9c de bf 07 97 99 3e d4 a2 29 c0 be c1 9f bf
       -1.7391391 0.29998037 -2.6505632 -1.2481
0001b0 0f a3 01 3f e1 af ec be a4 9c 69 3e 26 7a 5d 3f
       0.5063943 -0.46227935 0.2281366 0.8651451
0001c0 64 b0 22 bf 5d 6b 0c be 6e 50 0b be ea ef d6 bf
       -0.635504 -0.13712831 -0.136049 -1.6791966
0001d0 30 b8 66 3e 0d d3 17 3f 08 32 86 be 15 53 04 3f
       0.225312 0.5930641 -0.26210046 0.51689273
0001e0 bc 4c c5 be e5 4c 01 3e c3 fc 7c bf a4 77 94 bf
       -0.38535106 0.12626989 -0.98823184 -1.1599011
0001f0 e7 62 16 3e 45 56 f7 3e 2b e3 29 be 63 9a ac 3e
       0.14686166 0.48308006 -0.16590564 0.33711538
000200 55 92 ea 3e d3 19 80 bd 3b 4c 0c 3f 70 74 b1 bf
       0.45814767 -0.062549256 0.5480382 -1.3863659
000210 e7 04 bb 3e 34 93 92 3e a8 a3 52 c0 45 c7 1c c0
       0.36527178 0.28627932 -3.2912388 -2.4496624
000220 f6 6b 56 3f 66 28 f6 bf 91 9a 97 3d 99 02 ad bf
       0.83758485 -1.9231079 0.07402528 -1.3516418
000230 c1 c9 f4 3c 75 c6 52 3e 27 da db be 75 fb ae 3d
       0.02988136 0.20583518 -0.42939875 0.08544055
000240 60 ad 48 3f ac 81 43 c0 1c f1 15 3f c9 3e 8c bf
       0.7838955 -3.0547895 0.5857103 -1.095666
000250 d3 6a e1 bf f0 df 7d 3e 41 6c aa 3b 76 01 21 be
       -1.7610725 0.24792457 0.005200893 -0.15723214
000260 72 aa ff 3e a3 10 f4 be 69 7a 0b c0 eb 2b 1f c0
       0.49934727 -0.47668943 -2.1793463 -2.4870555
000270 19 44 fd bc 95 e1 f5 3e 07 8c 11 bf ec 83 18 3f
       -0.03091626 0.48023668 -0.5685429 0.59576297
000280 af 4f f0 3e 8a ed d8 3c 18 be 01 3e 61 da 80 bf
       0.46935794 0.026480455 0.12670171 -1.0066644
000290 93 af cf bf f6 14 26 3f b9 16 df bf ba a3 14 3d
       -1.6225456 0.64875734 -1.742881 0.036288954
0002a0 43 7b 6b 3f ab 9b 1f be e9 3f 24 bf 1b c6 e4 bf
       0.9198496 -0.15586726 -0.6416002 -1.7872957
0002b0 27 c5 83 be e7 27 29 3e 7b d4 bf bf 90 e9 4b 3d
       -0.25736353 0.16519128 -1.4986719 0.04978329
0002c0 09 f7 64 3c 69 e9 db 3d c5 38 00 3e d8 b4 e0 be
       0.013974913 0.10737879 0.12521656 -0.43887973
0002d0 57 3e ed bc ef 02 2b 3f 74 c8 c1 c0 e0 fa 1e bf
       -0.02896039 0.6680135 -6.0557194 -0.62101555
0002e0 d1 e6 7a 3e 09 26 0b 3f 37 eb 8c 3d b9 20 e9 3e
       0.24502112 0.5435491 0.06880801 0.45532778
0002f0 7d 5a 0b c0 90 13 47 c0 84 74 14 bf 8e f1 44 bf
       -2.177398 -3.110569 -0.5799029 -0.76931083
000300 f3 fb ae bf 68 50 1b bf 46 d4 bf 3e 5b 2a 6f 3e
       -1.3670639 -0.60669565 0.3746664 0.23356001
000310 24 8d 99 3e b8 99 e7 be 6f 02 9f be 07 b9 fc 3e
       0.29990494 -0.45234466 -0.31056544 0.49359915
000320 0e 29 20 bf c1 32 7f 3e 5d 9d 95 bf 7b 33 a4 be
       -0.62562644 0.24921705 -1.1688648 -0.32070526
000330 39 e9 7b bd af bc d3 bf fd f5 5f 3f 63 bc 2b 3e
       -0.061501715 -1.6541957 0.87484723 0.16771083
000340 dc de cc be 04 7a 88 be f3 57 be 3e 86 95 05 bf
       -0.40013778 -0.2665559 0.37176475 -0.5218128
000350 ab ec c1 3d 7f a5 83 3e 1d 9b b4 bf 5d d4 ca 3e
       0.09468969 0.257122 -1.4109837 0.39615145
000360 b8 b0 43 c0 5c 84 0c 3f c3 05 03 3f f0 5f cc 3b
       -3.057661 0.54889464 0.51180667 0.0062370226
000370 fa 83 90 bf 76 0d d2 be c4 10 3f be 07 92 28 bf
       -1.1290276 -0.41025895 -0.1865874 -0.6584782
000380 1c 33 9a bf 33 43 a0 3c 89 9a d2 3e 4d 36 aa be
       -1.2046847 0.019563293 0.41133526 -0.33244553
000390 78 72 ec 3d 0f ce df 3c 27 e2 1c bf df 1b 54 3e
       0.11545271 0.027319936 -0.6128258 0.20713757
0003a0 a8 ab 97 bf b5 02 d3 be d3 8b 54 be 55 61 89 bd
       -1.184926 -0.41213003 -0.20756464 -0.06708018
0003b0 0c eb 71 bf 94 80 aa 3e 71 85 ae 3e 53 f0 f4 3e
       -0.9449928 0.33301222 0.34086183 0.47839603
0003c0 e5 b0 9c bf c0 5a 07 bf e1 b5 dc 3e 5b 0e 33 bf
       -1.2241484 -0.5287285 0.43107513 -0.6994378
0003d0 08 88 11 3f 04 58 ae 3e 6b dc 42 be 1c 84 b8 3d
       0.5684819 0.34051526 -0.19029395 0.09009573
0003e0 9c d6 a4 be 87 12 fc be 4f 21 7c 3e 2c 78 86 bf
       -0.32194984 -0.49232885 0.24622081 -1.0505424
0003f0 35 79 1b 3f f7 99 5c 3f ea 06 25 bf bc cb 49 bf
       0.6073182 0.8617243 -0.64463675 -0.788265

fc3.bias f4 [219]
000000 00 b9 30 bf d7 d7 78 3e 13 14 e3 3e 40 87 5f 3f
       -0.6903229 0.24301086 0.44351253 0.8731575
000010 37 8f ab 3e a2 1a 8c be 1a e0 a9 bd 3a 61 8d bf
       0.33507702 -0.2736407 -0.08294697 -1.1045296
000020 be 80 51 be 3a 95 38 3e 4a 09 e9 3e 5c d7 31 c0
       -0.20459267 0.18025675 0.455149 -2.7787695
000030 dc 58 98 bf ac 1a ff 3e e4 b0 db be d6 c5 06 bf
       -1.1902118 0.49825037 -0.42908394 -0.52645624
000040 cc 25 7b 3e cc 26 73 bf 46 d3 d0 bd d9 04 55 bf
       0.24526137 -0.94981074 -0.10196547 -0.8321052
000050 af aa 30 3f ec 1c bd be cb f0 05 3f a9 8a ce 3e
       0.6901044 -0.36936128 0.52320546 0.40340164
000060 7d 29 d3 3e 32 76 e4 be ff 55 69 3e b2 fd 80 3f
       0.4124259 -0.44621426 0.22786711 1.0077422
000070 36 1d 01 bf 28 20 8b 3e dc 3a be be b4 aa 10 3f
       -0.504352 0.2717297 -0.3715428 0.5651047
000080 fc d6 f7 3c ea 09 7d be a8 ff 32 3e 66 fa f4 3f
       0.03025388 -0.24710813 0.17480338 1.9138916
000090 0f 8a 28 bf 56 37 b1 ba ed a5 80 bd e7 8c d9 3e
       -0.6583566 -0.001352052 -0.06281648 0.42490312
0000a0 c9 57 50 3d 4c c3 61 bf c3 7d 11 be 80 6c 9a be
       0.05086497 -0.88188624 -0.1420813 -0.30160904
0000b0 2f e0 01 bf 1b 84 43 3e 9e fc b8 bf 09 84 07 bf
       -0.507327 0.19093363 -1.4452093 -0.52935845
0000c0 39 89 d5 bf 4c 50 f1 be aa ce 86 3f 7b f6 93 3f
       -1.6682502 -0.47131574 1.0531819 1.1559595
0000d0 42 c6 d5 3e 81 a3 e4 3f c3 0a 00 40 e5 7d 2e bf
       0.4175282 1.7862397 2.0006568 -0.6816085
0000e0 0d 99 8e 3d 88 d5 84 bf a8 e1 5b 3e d9 ac 41 bf
       0.06962786 -1.0377665 0.214728 -0.7565437
0000f0 36 2c 8e 3f 77 17 4e 3f 51 08 a3 3e 2c 9c 10 bf
       1.1107242 0.80504555 0.31842282 -0.564883
000100 0f c1 01 3e d6 e0 1f 3f 62 d0 41 3f df a6 32 bf
       0.12671302 0.6245245 0.7570859 -0.69785875
000110 34 b5 c6 bf 0e 3d 25 3f 26 ee 0c bf 58 22 6b bf
       -1.5524049 0.6454629 -0.55050886 -0.9184928
000120 5e 4f 1f 3e 87 5b 16 40 47 bf b0 be e6 ba 28 3f
       0.1555762 2.3493364 -0.34520933 0.65910184
000130 0c 26 01 3f b8 d2 07 3f d4 50 9e 3e 4b fb 15 c0
       0.5044868 0.53055906 0.30921042 -2.3434627
000140 e8 38 81 bf f0 0f 8e bf ac 19 26 3f 0e 94 c8 3e
       -1.0095491 -1.1098614 0.6488292 0.39175457
000150 1a 7c 24 3f b2 0b 48 3e d5 89 12 bf 98 2f 9b 3f
       0.64251864 0.19535711 -0.57241565 1.21239
000160 b9 3b d8 3e 35 a7 3f bf 0a 37 48 3e ee 50 10 3e
       0.42233065 -0.7486451 0.19552246 0.14093372
000170 05 16 70 3f a4 f9 a0 3e 91 8e 09 3e 6e 0d 5a be
       0.937836 0.3144046 0.13433291 -0.21294186
000180 9f bb 9c 3f e5 0b 62 bf 1e 98 0b 3f 30 e6 15 40
       1.2244757 -0.882994 0.5452899 2.3421745
000190 4a 51 c1 3f 93 f4 1c 40 e0 01 09 40 93 4e 0f c0
       1.5102932 2.4524276 2.1407394 -2.2391708
0001a0 6b 27 a1 bf 3f 42 a6 bf 73 a3 73 bf 65 52 69 3e
       -1.2590154 -1.2988967 -0.9517128 0.22785337
0001b0 e7 29 a1 be 24 eb 65 bd 1d 52 24 bf e7 f6 ee 3e
       -0.3147728 -0.05613245 -0.64187795 0.46672747
0001c0 53 59 23 40 be 8c 37 bf 17 f8 4b bf be 07 af 3f
       2.552327 -0.7169913 -0.7967543 1.3674238
0001d0 7a 73 85 3f 49 c3 24 40 88 06 26 bf bf 47 d0 bf
       1.0425866 2.5744193 -0.64853716 -1.6271895
0001e0 1b 12 db 3e af 5e 85 3f 5d c5 55 3f 07 42 b1 3f
       0.4278725 1.041952 0.8350428 1.3848275
0001f0 25 87 8f bf 61 b7 38 3f ad 01 68 be 76 27 58 bf
       -1.1213118 0.72154814 -0.2265689 -0.8443521
000200 8f 9b 38 bf 3f 77 1f be dd a2 5d bf 2c 63 15 bf
       -0.72112364 -0.15572833 -0.86576635 -0.5835445
000210 e9 08 fe bd db ef 44 bf 58 0a 70 3f 97 7b e0 bf
       -0.12404043 -0.7692849 0.93765783 -1.7537717
000220 ee 9a f6 bf d9 4e 0f bd 4e 50 b0 3d 31 db c9 3f
       -1.9266031 -0.034987304 0.08609067 1.5770017
000230 93 0c 6a bf aa 48 79 bf 2d 0d 00 bf fa 98 56 3f
       -0.91425437 -0.973765 -0.50020105 0.83827174
000240 5a e0 08 3f c6 70 84 bf 44 ae 04 bd cb 0c 61 3f
       0.53467333 -1.0346916 -0.032392755 0.87910146
000250 4d cd 13 be 05 6d 71 bf 12 0f 5d bf df d3 71 3e
       -0.14433785 -0.94306976 -0.8635112 0.23615979
000260 2b 41 f1 bf 8b 87 0d bf 4d f3 fb bd b5 58 ad bf
       -1.8848013 -0.5528495 -0.12302265 -1.3542696
000270 6f 6a a0 bf 9d e0 6c bf 30 8f dd bf 7f b4 10 3e
       -1.2532481 -0.9253023 -1.7309322 0.14131354
000280 0e 45 9d be 99 60 b6 3e d1 58 2f 3e d2 bd b0 3f
       -0.30716747 0.35620573 0.17123725 1.3807929
000290 40 4c 55 3f 06 bf 2c 3e 31 61 cb 3e 2f 12 a1 3e
       0.83319473 0.16869745 0.3972259 0.31459185
0002a0 67 4b f4 be 73 f0 87 bf 8c 56 0a bf 9a da 80 3f
       -0.47713777 -1.0620254 -0.5403831 1.0066712
0002b0 68 42 55 3f b5 99 b6 3f 14 79 b0 bf a8 99 83 bf
       0.8330445 1.4265658 -1.378695 -1.0281267
0002c0 07 b3 8b be b9 9d 57 bf d9 e6 af 3d 05 ac 97 3f
       -0.27285025 -0.8422504 0.085889526 1.1849371
0002d0 d1 39 b6 bd 6d 42 47 40 88 00 06 c0 21 cf 10 40
       -0.08897746 3.1134293 -2.0937824 2.2626421
0002e0 68 45 b7 3e 75 a6 98 3c d5 9f 9a 3f 2f ef 00 3e
       0.3579514 0.01863406 1.2080027 0.12591241
0002f0 72 b0 da bf 71 37 82 3e 6f e3 fb be 95 f8 a7 3f
       -1.7085097 0.25432923 -0.49196956 1.3122736
000300 76 53 a3 bf e2 d1 30 be 31 f9 f2 bd b1 b6 35 3d
       -1.2759845 -0.17267564 -0.11863936 0.04436368
000310 fd e5 cc bf 7d 98 18 3f 5f 18 b1 bf 84 a1 51 3d
       -1.6007687 0.5960768 -1.3835562 0.051179424
000320 75 96 92 3e ed 30 eb 3f e6 19 84 be b4 f5 08 3f
       0.28630415 1.8374306 -0.2580101 0.53499913
000330 ed 52 ea be ab b0 27 bf f4 43 29 3f e8 6e ca 3f
       -0.45766392 -0.6550395 0.66119313 1.5815096
000340 e7 f1 b6 be cd b1 8a 3e 73 fe 06 bf c5 74 ec be
       -0.35731432 0.27088776 -0.5273201 -0.46182838
000350 3f fb 30 3e 86 dd d1 3d 94 10 ae bf e7 f4 b8 bd
       0.17283343 0.1024733 -1.3598809 -0.090310864
000360 16 b6 07 bf 98 ec 83 bf 30 55 86 3f
       -0.53012216 -1.0306578 1.0494747
